item_bias_error.npy (npy, 13192 bytes, 1 tensors)

array f8 [1633]
-0.42878529803197424 -0.03663316566201654 -0.5268860507856159 0.9400934808082596 -0.30089520667946307 -0.08271886492807438 0.09610993116102672 0.5475365578605176
-0.3141887107767535 0.6493716808378718 0.5114014831057581 0.011365745294427358 0.05574576150630673 0.3580914076171426 -0.14517327803301347 -0.023472788464053346
0.1936199689922513 -0.3877236840027245 -0.5111904499556887 -0.07874430321922224 -0.5961286856742799 -0.26104857777943813 -0.5075501423110481 -0.3141212492944598
0.2607984776248257 0.33102160726149243 0.6435785218672337 0.7319420075544351 0.08663536262622412 -0.08657066666576702 -0.9318543962277347 0.20984369670460015
-0.5245396716682716 -0.9440870888475676 0.06096866042371838 0.46077189816470837 -0.5566723266418079 -0.27943433724105565 -0.29904586863775157 0.22794841589650555
0.6540487258726941 -0.4800265269828769 -0.23204206681593229 0.552638195003283 0.7664728645792376 -0.6294181668546807 0.024653675514618868 -0.029049363626702122
-0.0663936242859573 0.8434936809777925 0.055399749293798636 -0.2773772326466049 -0.2860828285949517 0.03184785694213482 0.22354277096903533 0.22650269942108442
-0.02537112351204599 0.2422038071690769 0.4475149589233372 -0.5302927214359345 -0.7933476268688684 -0.47263748243385273 -0.6551901168412396 -0.8911602821050801
-0.46589107702843724 -0.24969678678559631 -0.19225234980111205 -0.04199520504619618 -1.0625216119301784 0.041354854038930806 -0.12611301293800847 -0.1378504066456097
0.1908408036472364 -0.08946796648083834 -0.07201246774725603 0.07454352507152473 -0.5166848084446479 -0.4080010136435923 0.09526413606187319 -0.29042336555001397
0.3789954771701249 0.6219600032999466 -0.6181491401355512 0.6441907042866263 0.15709546615115305 0.498488685600671 0.6965531275999733 0.5429491991342793
0.23059606441692937 -0.4475489317575146 -0.2289543118636787 0.6756180996921434 -0.26520619307709675 0.04114478492999656 0.1079086070759159 -0.32438964712817053
0.7538850602702557 0.7824509735430872 -0.4937430920925791 0.1117495510347543 -0.2976076778737464 -0.6668931585943547 -0.07714098411865268 -0.12663346729017033
-0.29417031258008597 0.028621872668309945 -0.41553621382588485 -0.025058669523481528 0.5849317714464147 -0.35692570616315195 -0.31773219945769154 -0.11644891914922634
0.44028223055600885 -0.043599171486767174 -0.2171326420411239 -0.4246540695682766 -0.2980190373163882 -0.3801404653324655 0.02864211570122406 -0.04561652838166345
-0.13141938663854727 0.24237928606830164 0.13337390021620815 -1.2141659075726463 -0.7012475916465046 -0.302031057542842 -0.21355052960723622 0.07684427105357992
0.04516391785728149 -0.2886917480592339 -0.8749821367016316 0.0744691230489559 -0.7037082556454917 -0.7040829030441014 -0.08387120381518025 -0.7509431437120802
0.06533012641205724 0.05568959238279636 -1.0905767656646257 0.07762635999481379 0.44779456129909634 0.3830995615563405 -0.6435358390865882 -0.23425338184646496
-0.3261787175845333 -0.46588656870890727 -0.09101682709164097 0.4234429075168675 -0.4179859098434702 0.504373293082194 -0.42451618274183883 0.6161755478077827
0.4955717016664063 0.054564517915195024 -0.29419554215982213 0.032389531961788044 -0.5587939323967535 0.21489686293850072 -0.938054145743344 -0.9131907869313834
-1.0561822153762144 -0.03361089812447681 -0.08411976511733789 0.04302272678421637 -0.14576012752992903 0.08126281551008496 -0.0928628704839379 -0.7873264943999698
-0.596329425317343 0.46999884124829683 0.5281539367293041 0.018138674058833716 0.5831809799911866 -0.2748840442557521 -0.3172704320999317 -1.2972138102528374
0.05500578105534307 0.42383455526508407 0.23186687383614085 0.2859813092670468 0.04962670527020104 -0.7504042044826702 0.7840622824778216 -0.18084649949391823
-0.15957465364289242 -0.4296501240965288 -0.3809814924635096 -0.19903248109400176 -0.31073272984983374 -0.9330749364532429 -0.46649178774334565 0.2559109606765026
-0.44310837338762077 -0.15841583631747236 0.16264198686578502 -0.44166148062146043 0.4240695402628928 0.40189431376667223 -0.8076996809337701 0.24006167632509987
-0.29153723418148236 -0.6782167240790647 -0.134721228305915 0.45036201369524526 0.14614465816558114 -0.4850792214955127 0.9250714446794938 -1.1722375825274935
0.14113155033406616 0.43289866878016875 -0.4333781679970649 -0.002260145747386199 -0.003782389245619568 -0.1557196091093532 -0.03108680221309658 0.09441510023191749
-0.24115231332193612 -0.1339581641052925 -0.6479587766298096 0.3443593474891057 -0.1588850591469706 0.476594115651052 0.7239606062722509 0.3990629989112847
0.11272810363308589 -0.0855517385818429 0.377790916638027 0.39745379210088405 0.26802962878458453 0.8474192699167757 -0.08904520425296075 0.4519706842415314
-0.3685841542991366 -0.41221763471822953 0.3573265218600147 0.15520156956578193 -0.0889020072648205 0.11404831043757624 -0.006513132269699332 -0.116811290800895
-0.3748811159071994 -0.3226874053317266 0.3762286752202456 0.360234148394628 -0.3492231249757156 -0.67172626088752 0.5571954453176692 0.11260321531902305
-0.25872038242585543 -0.29521090109891607 -0.08342272824095484 -0.6396598041265712 -0.939281064047012 -0.24682282012527168 -0.7761312017687869 0.26658703068538026
00000000: 6963 03e4 3771 dbbf 6b43 ef10 95c1 a2bf
00000010: 58f8 9a22 40dc e0bf 0d23 68ec 3e15 ee3f
00000020: 7988 0df8 dd41 d3bf a3d9 a043 102d b5bf
00000030: bf4c 2813 a99a b83f be02 2c63 6b85 e13f
00000040: 6ebf 63f7 aa1b d4bf f0b5 841e a7c7 e43f
00000050: 8615 a2a4 665d e03f 8281 ac82 ec46 873f
00000060: f1d2 1e5d b58a ac3f 4f6e 2c39 f8ea d63f
00000070: 07d4 b3b8 0995 c2bf 4836 322b 4009 98bf
00000080: f04d 5605 8ac8 c83f 2849 abff 76d0 d8bf
00000090: 68ca 1213 ac5b e0bf 6aa7 122f 9628 b4bf
000000a0: 3db6 2577 7c13 e3bf 4eb8 0e18 05b5 d0bf
000000b0: 8dcb c9cb d93d e0bf 0fb2 2c03 901a d4bf
000000c0: 97b1 0f19 ecb0 d03f 2047 5d40 752f d53f
000000d0: 417d fafb 3198 e43f ed79 20a5 116c e73f
000000e0: ac1f 2831 bc2d b63f bc54 1fc6 7e29 b6bf
000000f0: 81d2 8d4f c0d1 edbf a51a 4f83 28dc ca3f
00000100: 3da2 e86b 07c9 e0bf 04a3 6520 f635 eebf
00000110: 0d9c 33c5 4837 af3f 0321 626a 497d dd3f
00000120: 3279 b07b 42d0 e1bf ef1a f58e 40e2 d1bf
00000130: 4165 7348 9123 d3bf eaa9 b9e7 692d cd3f
00000140: 5aa3 f397 f7ed e43f 97a6 a62e c1b8 debf
00000150: 83a5 22f0 8db3 cdbf 02e8 c14b 36af e13f
00000160: d674 d419 f286 e83f a1c5 4491 3124 e4bf
00000170: aaf5 3e28 d03e 993f 6e35 fcca 1dbf 9dbf
00000180: e099 f82c 2cff b0bf 35d5 c575 e6fd ea3f
00000190: 4ed0 d81e 5b5d ac3f 55d1 b76f 8cc0 d1bf
000001a0: a8cc 305a 2e4f d2bf 683f 07c0 5c4e a03f
000001b0: 5ddc 48ad 0c9d cc3f 3a11 3c5b 0afe cc3f
000001c0: 4af1 fc46 e3fa 99bf 1202 61cb 8800 cf3f
000001d0: 21fa 42c8 15a4 dc3f 42f9 fb70 28f8 e0bf
000001e0: 1e5a f88f 1a63 e9bf f2b2 7a48 b13f debf
000001f0: 7ddb 8f43 51f7 e4bf a255 6491 6284 ecbf
00000200: 7476 d5ce 28d1 ddbf ae88 9476 10f6 cfbf
00000210: 74ca 7c99 b99b c8bf 9642 8640 6580 a5bf
00000220: 7a88 68a9 1600 f1bf 4191 41a3 762c a53f
00000230: 4c9a 15a1 7824 c0bf ba3f 2406 15a5 c1bf
00000240: 5f20 34b1 786d c83f b927 1366 5fe7 b6bf
00000250: c2f3 e0b9 686f b2bf a08d 4fd2 4815 b33f
00000260: 6183 5394 ae88 e0bf 8c61 9548 b01c dabf
00000270: 8510 defc 3a63 b83f 2105 42e2 4b96 d2bf
00000280: 37c4 f13e 7641 d83f 80fc 32aa 18e7 e33f
00000290: cad8 9db4 e0c7 e3bf 678b e9d2 359d e43f
000002a0: ba0a bc48 b41b c43f 992d 8516 3de7 df3f
000002b0: 23fd dec8 294a e63f d379 b5ff d65f e13f
000002c0: 10e6 a0fd 2b84 cd3f 5987 5046 a4a4 dcbf
000002d0: 9ec8 ddf8 5f4e cdbf f76d 58d9 a99e e53f
000002e0: 639e 7d65 23f9 d0bf 77bf 59e3 ed10 a53f
000002f0: c214 5902 e69f bb3f eee4 64cb ccc2 d4bf
00000300: 37b8 d98f d31f e83f d3e8 c29f d609 e93f
00000310: 7f77 4aa0 7c99 dfbf bb75 095b 9e9b bc3f
00000320: 4c66 e012 010c d3bf 3ad8 4252 3057 e5bf
00000330: d98a f8f3 82bf b3bf 2891 4b84 8635 c0bf
00000340: 8613 ffb7 afd3 d2bf 9d1f 3e5c 0d4f 9d3f
00000350: c7e4 2b34 2598 dabf f4a7 56d8 faa8 99bf
00000360: 4b1e 98d5 c2b7 e23f e9a2 c4ea ded7 d6bf
00000370: cfa4 636f b955 d4bf 8c85 66ab 98cf bdbf
00000380: 11df 4f85 952d dc3f 6033 566f a152 a6bf
00000390: 47f8 3a9e 00cb cbbf fd2d 3a43 882d dbbf
000003a0: 9ffe b670 be12 d3bf 6a4e 9fac 3854 d8bf
000003b0: d467 e6d8 5b54 9d3f 65d3 1cb3 0c5b a7bf
000003c0: e522 d6b7 59d2 c0bf 5112 72d1 4806 cf3f
000003d0: 46c7 c85d 6512 c13f 3215 0f3b 396d f3bf
000003e0: f0a7 10ca 9e70 e6bf 9075 a112 7a54 d3bf
000003f0: 8970 5aae 9f55 cbbf bf61 0fef 10ac b33f
00000400: 9300 509c b91f a73f dc86 22f4 ec79 d2bf
00000410: 79f7 b689 daff ebbf d69b 0e90 6810 b33f
00000420: e485 fd2c c784 e6bf b0e8 47de d887 e6bf
00000430: 8b5c 764d 9578 b5bf 12c3 6cea b907 e8bf
00000440: 0622 62a4 79b9 b03f 10fb 05a4 5883 ac3f
00000450: 91e9 649f 0073 f1bf 3639 7c35 52df b33f
00000460: 64cd 0685 aaa8 dc3f 5ec5 ff05 b484 d83f
00000470: 3cc9 d578 d897 e4bf 1105 01cb 03fc cdbf
00000480: 8a50 2bb3 1ce0 d4bf c706 10e6 15d1 ddbf
00000490: 7289 bef7 e04c b7bf af84 e047 b019 db3f
000004a0: 49db 3df9 47c0 dabf 6e71 d875 d323 e03f
000004b0: ebee 5fec 452b dbbf ebbc 4dc8 b5b7 e33f
000004c0: f8bc de5e 72b7 df3f 627f ef67 e1ef ab3f
000004d0: b025 0d8a 19d4 d2bf ad6a 0459 5c95 a03f
000004e0: 021d 1bd0 a3e1 e1bf c3bb 2a8b bd81 cb3f
000004f0: 4209 bb20 8a04 eebf 191f 9ce2 db38 edbf
00000500: d085 9a52 1fe6 f0bf afb6 7798 7235 a1bf
00000510: 894c 2078 df88 b5bf 70c0 0b29 1307 a63f
00000520: 83a2 6692 44a8 c2bf 8027 ffce a3cd b43f
00000530: 16bf bd6f dcc5 b7bf 3e1c 1755 c731 e9bf
00000540: c02c 6c72 2115 e3bf ea6f 1405 7614 de3f
00000550: 4531 b015 a3e6 e03f 9a81 80cf f192 923f
00000560: 99c3 9628 6ba9 e23f b052 113f b397 d1bf
00000570: 03d9 76a4 284e d4bf ac49 af44 63c1 f4bf
00000580: 4480 72bd b729 ac3f b2ce 71f8 1a20 db3f
00000590: 2e74 1350 d0ad cd3f 3a6e a48c 844d d23f
000005a0: db98 49e8 ab68 a93f 3e16 a1ad 4f03 e8bf
000005b0: 949e a8c8 0917 e93f 2613 7664 fa25 c7bf
000005c0: 1258 5537 f16c c4bf 3ae2 ed3b 637f dbbf
000005d0: 55c5 a032 0062 d8bf 1dfb 9176 e579 c9bf
000005e0: 211e 2088 0be3 d3bf 2c16 19f8 bfdb edbf
000005f0: a074 0d5f 00db ddbf 0bc9 b25d d860 d03f
00000600: 4e26 1239 e35b dcbf d075 135a f846 c4bf
00000610: d4c2 45df 73d1 c43f db03 cb83 2e44 dcbf
00000620: 162b aa91 f423 db3f c9e0 84ed a2b8 d93f
00000630: a734 5300 add8 e9bf 436c 6b4c 57ba ce3f
00000640: 740c 98c9 8ba8 d2bf 85a2 308f f3b3 e5bf
00000650: 324f d392 8b3e c1bf 53a2 0b32 bbd2 dc3f
00000660: de33 a73f deb4 c23f 25b6 12b8 890b dfbf
00000670: ad94 2b6e 2f9a ed3f 1f90 0132 7cc1 f2bf
00000680: 062e 8f40 9910 c23f ff22 399e 9cb4 db3f
00000690: 2742 96c8 77bc dbbf fe06 3782 de83 62bf
000006a0: eaac 8ac3 3efc 6ebf d33b 3cc2 9eee c3bf
000006b0: 84b0 5efb 37d5 9fbf 3aa1 be87 962b b83f
000006c0: 6546 8939 14de cebf b8a5 ee86 8a25 c1bf
000006d0: 9aff 580b 14bc e4bf 2e68 e2c9 fb09 d63f
000006e0: 60fc 6d7a 5856 c4bf e3fc 0b9b 8480 de3f
000006f0: 4703 f16e af2a e73f 9a87 5788 3f8a d93f
00000700: 44b7 71be bfdb bc3f 5c30 53ff b7e6 b5bf
00000710: 82ea ebf3 b92d d83f 90a5 af07 e26f d93f
00000720: ad48 7fbe 6527 d13f 325e 4904 0f1e eb3f
00000730: bcd1 21a0 aacb b6bf 145c e472 16ed dc3f
00000740: 9478 22fe e196 d7bf d7c0 fc12 c661 dabf
00000750: d675 580f 70de d63f dd54 c920 a5dd c33f
00000760: ec4b c02d 48c2 b6bf 7052 7e23 4532 bd3f
00000770: aa70 7ca1 83ad 7abf 961b cb41 58e7 bdbf
00000780: ec66 2d5d 0dfe d7bf 70c6 2e13 e9a6 d4bf
00000790: e6da f86f 2114 d83f 3a78 9087 130e d73f
000007a0: 84c4 31f3 ab59 d6bf 570a 4c12 c87e e5bf
000007b0: 51d3 e38a 8bd4 e13f ff3a 3877 90d3 bc3f
000007c0: 6bf8 54ef df8e d0bf 4b1f 6943 bce4 d2bf
000007d0: 26ba 8921 315b b5bf ad42 69d6 1778 e4bf
000007e0: 1cb0 7a29 970e eebf a419 2ce2 e397 cfbf
000007f0: 5811 201a 11d6 e8bf 9636 950c c30f d13f
