user_bias_error.npy (npy, 7672 bytes, 1 tensors)

array f8 [943]
000000 a2 50 df 17 9f 8a ae bf ab 99 c7 2f a4 9b a4 3f
       -0.05965134779367644 0.04024994929550315
000010 52 bb 40 69 fc 5a d9 bf 33 ed 14 f9 55 72 e4 3f
       -0.39617834356879655 0.6389570107343502
000020 38 03 78 9c e0 54 e1 bf 9b 60 73 9b f4 f7 d5 bf
       -0.5416110092192872 -0.34325900250179026
000030 8c f5 08 c0 83 6c cb 3f 97 d7 cd 8f 51 e4 78 3f
       0.21424910427769495 0.0060771165852794495
000040 84 6c ee 35 8a bb cd 3f f0 c3 19 47 ea 5c d0 3f
       0.23228576310507176 0.2556710905401465
000050 ce 24 e4 3d 22 98 c6 bf fd 1b 0e 4f c4 da d5 3f
       -0.17651775381117435 0.34147746772981674
000060 08 d7 74 4c 85 ed d9 bf b0 4a d0 1e 2d 5d d3 3f
       -0.4051221129078475 0.3025620270647478
000070 7b b6 d3 35 5e 9a dd bf fa 8d c9 90 e7 64 e1 3f
       -0.46254687553923873 0.5435674503209491
000080 ee e7 82 fd fa 23 dd bf 96 3b a4 d1 0b 10 a6 3f
       -0.45532107121436993 0.04309117254353294
000090 9d aa 61 40 76 3c a1 bf 8e db c9 c2 f6 04 da bf
       -0.03366441284091091 -0.40655297300639226
0000a0 6d 5e 80 f4 4e 6b e2 bf ab c9 6f 54 58 f8 cc bf
       -0.5755991721552626 -0.22632888911136936
0000b0 c2 84 6f 73 14 6a c7 bf 21 ad 2d b3 6f 6f df 3f
       -0.18292480122094018 0.4911765336789405
0000c0 17 0f 50 b6 6e 2c b2 3f 2e 7e b0 af 36 20 e3 bf
       0.07099048567766562 -0.5976823264535989
0000d0 f1 0b a3 a8 1a 94 c2 bf 02 05 51 0b 82 97 93 bf
       -0.1451447795317047 -0.01913264459677056
0000e0 52 0a 28 68 4c c2 ac 3f 67 e0 f7 d8 6f aa c6 3f
       0.05616987964096566 0.17707632154611305
0000f0 96 cb db 42 88 c3 c0 3f 5f fc b7 c9 65 b1 c4 bf
       0.1309671713312041 -0.16166374539895664
000100 ed 47 5a 6c 8e f4 d0 3f 05 99 f2 0f cd c6 d2 3f
       0.2649265344745107 0.29338385159861985
000110 61 24 3d 9e 86 76 c4 bf 2e 04 d9 cd 3c 60 e0 3f
       -0.15986712194925004 0.5117477436507494
000120 f1 1e 71 fc 35 4e b4 bf 09 8f a8 71 f1 5c e2 3f
       -0.07931840336925312 0.573845598210455
000130 b8 a2 3b 6d 77 95 bc 3f cc a6 e4 d7 aa e8 e8 bf
       0.11165567795581921 -0.7784017769492606
000140 78 1d fd 93 0f f8 be bf c9 ba 8f b6 1e 6c 9e bf
       -0.1209726082134831 -0.029709319965997936
000150 08 4c a7 98 4b 1e a5 3f 8b 44 be 8d 83 6a c5 bf
       0.04124675978132336 -0.16731304570251768
000160 fb 7b b0 b9 ec ae b3 3f 2c 44 24 cc 9b 95 d2 3f
       0.0768878892272226 0.290381383282752
000170 ae 64 73 0f a6 0a 9d 3f e8 c8 86 a0 80 7c ce bf
       0.028360933964766737 -0.23817451322754057
000180 a0 93 a3 5f 0f 9f ea bf 01 39 70 45 af 83 b4 bf
       -0.8319165103863391 -0.08013434834740353
000190 28 77 11 41 58 1b d2 bf ed a9 c6 57 93 9b e0 3f
       -0.28291899065321724 0.518991156995353
0001a0 f3 c9 6b 3b 2e 95 cd 3f a3 19 e1 2b 8e e0 c3 bf
       0.2311151304380271 -0.15529038565200634
0001b0 54 18 13 94 45 96 af bf 06 e6 33 42 24 4f b8 3f
       -0.061693357778083296 0.09495760551717333
0001c0 3d a8 5e 16 f2 71 b6 3f ba d8 15 84 0d 1d 97 bf
       0.08767617269646251 -0.022571765124177225
0001d0 df 5a a9 92 e6 ee cc 3f 1c 4d 7b 7e 8b 92 cc 3f
       0.2260406700249495 0.22322219539510335
0001e0 82 69 29 25 2d 71 e0 bf ea a2 c2 85 c3 86 d9 bf
       -0.5138154722038026 -0.39885032713441027
0001f0 ef f4 25 72 57 86 e4 bf 7f be 2e 01 31 aa d0 bf
       -0.6413991193254825 -0.2603876601742527
000200 84 b8 f6 04 78 38 c2 3f 25 04 51 99 40 66 ba bf
       0.1423482918011737 -0.1031227468784129
000210 37 1f 96 30 90 ed c3 3f 2a 24 5c e9 31 42 d7 bf
       0.1556873547781323 -0.36341522015624383
000220 43 41 d9 7e 73 8d a0 bf 4d 3f 2c a2 b4 dc cd bf
       -0.03232918666310749 -0.233297900377233
000230 50 1e 55 42 6c 8e c7 bf 8e 11 dd 6f 5f 4f a3 bf
       -0.18403390158549593 -0.03771494141122665
000240 1c 4e 3b 6d 0f 3b c8 bf b0 70 14 d5 fe 3e c0 3f
       -0.18930237611367395 0.12692246822633058
000250 3b 10 e9 20 7c 26 ce bf 73 de 1f c9 13 71 d5 bf
       -0.23554946524575535 -0.33502668992102896
000260 eb 6f be 1e 76 60 e0 bf 8d 33 37 40 26 5c 98 bf
       -0.5117750740496353 -0.023789022130404503
000270 e4 81 08 cf 63 d0 d5 3f 3c 9a 1b 74 89 95 95 bf
       0.3408441087540537 -0.021078250610026425
000280 3e eb 6d 45 51 2c 84 bf f9 ab f1 4d 72 53 e1 bf
       -0.009850153857532736 -0.5414363405556052
000290 c2 52 2f 11 94 af b5 bf 9e 32 7a a4 d8 bd b8 3f
       -0.08471036357452547 0.09664682403144773
0002a0 98 46 0d a0 b5 d3 d4 bf 75 48 bd 28 c0 b9 bf 3f
       -0.32542172079147624 0.12392807955373704
0002b0 02 4b 89 23 87 a2 d0 3f ba 07 b6 65 00 4b d5 3f
       0.25991991491643784 0.332702731444552
0002c0 58 d5 31 32 30 56 dd 3f 24 9c 1b b5 44 81 d5 3f
       0.45838551427671836 0.33601491628945923
0002d0 79 66 15 43 08 03 b1 bf 6b 94 ba cc c9 9e cf bf
       -0.06645251882346227 -0.24703333374523892
0002e0 64 eb 95 97 a5 64 d6 bf 69 35 3f 8a e6 24 a7 3f
       -0.34989299586566447 0.04520340383133254
0002f0 b2 77 e0 f2 d6 70 c4 bf 9d 11 d0 9a 82 6c c1 3f
       -0.1596935926362995 0.1361239677354548
000300 f2 6f 61 1a a3 24 bd bf 24 a2 73 d8 36 5d b4 3f
       -0.11384028810556382 0.07954733643021733
000310 fc 27 6e 2f 94 54 bd 3f 90 ae c5 af 20 dc dc bf
       0.11457182081190348 -0.4509355274701443
000320 55 21 fc 04 61 e2 d2 bf 89 92 e9 60 37 b1 ef bf
       -0.2950670765572075 -0.9903828518695984
000330 a0 82 3b 2f 3e 12 c5 bf fc a2 f2 b2 21 42 e9 bf
       -0.16461922937653117 -0.7893227095674713
000340 20 d8 35 fd 32 69 ca bf c8 28 88 ce 26 df ba bf
       -0.20633542407785033 -0.10496752302438772
000350 1d d8 68 00 bf 85 de bf 78 c8 81 8e 1e 6f b5 bf
       -0.47691321411127935 -0.08372679690526919
000360 80 48 b9 ee 10 ec 84 bf aa 41 eb 27 9a 40 d6 bf
       -0.010215885434409211 -0.3476930036386202
000370 bf ba e6 51 50 33 c6 bf 93 69 cc 85 0e 8a d1 3f
       -0.1734409713657978 0.2740513140321578
000380 d1 95 0e ba b2 bb cc 3f 4f db 8d 83 33 04 dc bf
       0.22447809300244484 -0.43775642249186303
000390 2e a0 0c 02 05 13 c5 3f f3 1d 37 14 8d 96 e3 bf
       0.16464293098511135 -0.6121278185682385
0003a0 58 2e ec 37 4c b4 ca 3f cf 43 ec 3c 25 ee ea 3f
       0.20862725000948745 0.8415704908276157
0003b0 b5 25 67 fb dc ce d1 3f 27 33 56 56 43 e9 c5 bf
       0.27825092841211624 -0.17118112292919216
0003c0 d1 d4 04 16 26 42 c8 bf 5a d1 47 44 4f ce b4 3f
       -0.18951870036258936 0.08127303521161391
0003d0 0f 6c 04 6e 42 ea aa bf 10 8b d6 a9 93 78 dc bf
       -0.05256850808128643 -0.4448594244551467
0003e0 5a 6e 2e e5 7d 16 bc bf 65 cd 19 a4 62 73 c2 3f
       -0.10971819730041812 0.14414628041013625
0003f0 d0 d1 2e d2 a1 c4 d6 3f 0a f2 0a 62 f0 8f c5 bf
       0.35575147176430466 -0.16845516955608303
000400 3b 45 67 44 07 d0 e1 bf 1b 13 9c 5c eb 34 e4 3f
       -0.5566440902713689 0.6314598854811239
000410 97 b3 b2 f6 a0 c9 c0 3f 90 c3 20 c7 fd 4a d0 bf
       0.13115322156718598 -0.2545771069153995
000420 f9 87 08 6c d3 ad d1 bf b3 1b 5d 1e 76 19 9c bf
       -0.2762344889653146 -0.02744087753606168
000430 98 62 b8 aa 30 4b ac bf 99 9b 34 b2 f5 a4 df 3f
       -0.05526115497577172 0.49444334414368424
000440 7b ba 75 03 c0 b6 e1 3f e4 94 51 85 96 ea d1 3f
       0.5535583560538976 0.2799431135120598
000450 a1 ce 77 19 c0 e4 c2 3f fe b1 ae b9 1b 60 ba 3f
       0.14760590785555386 0.10302899630796244
000460 b3 ac d7 47 50 bf b9 3f e8 44 13 e9 5e 95 8b 3f
       0.10057546380965014 0.01346849583424832
000470 29 ef 85 a8 60 6a b8 3f 53 10 6e 9d c3 f0 c3 bf
       0.09537319292388403 -0.15578503787048933
000480 bf 52 d9 a0 9d f9 b2 bf 78 16 ed 59 bf f8 b7 3f
       -0.07412133385634954 0.09363933511220945
000490 cd 5a e0 02 d8 99 d6 3f c8 7f 21 cd 54 c9 a2 bf
       0.3531398799981787 -0.03669228557623644
0004a0 64 bd 46 37 dd af e1 bf cf ec d4 16 e5 bb b8 3f
       -0.5527177886596459 0.09661704833426941
0004b0 4a 33 0a 98 35 08 cb 3f 82 b5 75 8e fd 4c e8 3f
       0.2111880295164162 0.7593982489030824
0004c0 08 e9 50 55 78 27 e3 bf 43 55 51 13 da 10 a8 bf
       -0.5985681215600218 -0.04700356946765762
0004d0 4f 36 21 4c c4 55 e2 bf 13 f0 78 f7 af bc cb bf
       -0.5729695784481893 -0.2166957815514939
0004e0 64 9a 3b 5d 74 dc c3 3f 8a c8 71 04 48 dd c5 3f
       0.155165238880005 0.17081546990408852
0004f0 64 24 23 c4 ef 01 be 3f ba fa a9 44 1e c2 d1 3f
       0.11721704996593157 0.2774730368181896
000500 73 e1 0f c2 5f ba f4 bf ea 33 8c 42 8b 6a ce bf
       -1.2955014782474705 -0.2376264643611699
000510 2e bf 8d db 9b 02 e2 bf e9 d7 a2 d9 d1 77 e2 3f
       -0.5628184593351528 0.5771264315324035
000520 96 68 20 b1 5e a6 af 3f 0b 0b 69 6f da 12 a0 bf
       0.061816176530741604 -0.03139383897771183
000530 f6 13 1a 53 e2 f5 a7 3f d7 0d 7a 67 a5 2c c2 bf
       0.04679782165934647 -0.14198749115540352
000540 6d e0 9d 7e cb 9c b2 3f d6 5e e6 97 d2 4b d7 3f
       0.0727050003168885 0.3640028460881529
000550 88 ca 37 2e 48 92 d2 bf 5e b4 33 cf da 84 e0 bf
       -0.2901783419940007 -0.5162176176942344
000560 fb 26 ac ec 07 6d e5 3f b9 22 01 8e b9 3f d3 3f
       0.6695594427594352 0.3007644545328208
000570 d6 39 27 19 b3 40 c1 bf fb 2f 41 ac 82 ad 84 bf
       -0.1347869751757133 -0.010096569902223953
000580 a1 d9 db 82 b2 40 c2 bf e5 ce fd 9d 12 f1 b2 3f
       -0.14259940518941241 0.07399097783291671
000590 25 a4 6f 16 d1 95 e0 bf bc bc 48 3f 19 af c0 3f
       -0.5182881773190543 0.13034358587308315
0005a0 c9 95 85 56 6e 30 fc bf 65 c8 8e a2 98 33 bb 3f
       -1.7618239764936894 0.10625604599661782
0005b0 cd 9c 33 e0 6d 6f d9 bf 9d c7 da 31 9b 64 b8 bf
       -0.397426098772894 -0.09528512923387074
0005c0 bc f0 bc af cb 51 89 3f d9 2d 57 91 85 a4 c1 bf
       0.012363044071769351 -0.13783330532747476
0005d0 7d 99 bc 78 d1 ea cc 3f 64 bc 86 65 1b c4 be 3f
       0.2259160842451812 0.12017985562009553
0005e0 9d ba 5f ba 01 65 ae 3f 74 53 5a 82 c6 ae bf bf
       0.05936437034676099 -0.12376061136667521
0005f0 dd f6 db 18 c5 01 c7 3f 3d a5 c3 ea 23 1e c5 bf
       0.17974151338415015 -0.16498230898950253
000600 f9 93 7f f2 4c 23 d2 bf a6 c5 ee b5 48 6d e7 bf
       -0.2834045761249509 -0.732090335213958
000610 9e f0 f8 9e 82 13 d3 bf 38 44 14 b8 46 c6 d8 bf
       -0.2980658104386381 -0.38710182167511986
000620 e7 08 9b f5 40 92 d9 bf 97 cf 74 a6 9c 96 e0 bf
       -0.3995516203396065 -0.5183852435206856
000630 4b 46 dc 8b 90 0d dd bf 8b 76 b0 41 11 b9 dd 3f
       -0.45395291956183276 0.46442061820003094
000640 31 26 c3 b1 69 f6 e1 bf cf 9d 79 52 ec da eb bf
       -0.5613296958846999 -0.8704740153161142
000650 1c 05 24 43 09 07 cd bf fc 9b 6e cc b1 89 bf bf
       -0.22677722719530713 -0.12319480172173763
000660 ff 7a ee 5f d3 1a dc bf 3c 9f 7f 01 2c 02 f9 bf
       -0.43913730972592185 -1.5630302485023568
000670 05 97 84 7f c6 8e e0 bf a2 6b ff 89 f8 82 b0 3f
       -0.5174286356529768 0.06449845666013101
000680 33 72 a6 a7 4c ec d5 bf a7 62 aa 51 9f 78 c7 3f
       -0.34254757282340903 0.183368601680532
000690 bb 8f 21 67 c5 ae d2 bf e7 59 0a 44 87 e1 be 3f
       -0.291917181695904 0.12062879000800529
0006a0 bd a1 89 c8 f4 43 db 3f a9 db 14 c6 79 4d c3 bf
       0.42602271636726724 -0.1508018700785361
0006b0 22 3b 01 c5 98 a5 b1 bf 5c bf 05 76 12 a4 c0 3f
       -0.06893305597007474 0.13000708353819845
0006c0 24 a5 20 72 3b 71 de bf 8d 30 be ac e6 64 d3 bf
       -0.4756611456419526 -0.3030335127775821
0006d0 b5 c5 c3 d4 4d 38 d6 3f 5a 58 37 ca db 41 c6 3f
       0.3471865251331921 0.17388484357678885
0006e0 99 c2 01 4a 84 5e 8b 3f 2b b3 cb 99 e0 0d db bf
       0.013363870152006728 -0.4227220060263785
0006f0 89 3c 1e c8 d8 d6 c2 bf 95 9c 03 2d 75 19 dd bf
       -0.14718160411255024 -0.45467881580265984
000700 6c 58 3d 26 a3 02 e2 3f 90 43 c4 24 45 bd d2 bf
       0.5628219363086493 -0.29280212965482466
000710 59 07 46 ac 7d f8 d0 bf 13 fa c6 10 14 e8 dc bf
       -0.26516668151463346 -0.4516649402466168
000720 e1 75 77 a0 51 3f dc bf 2b 1d 35 a3 a2 5b bf 3f
       -0.4413646761948638 0.12249199375684287
000730 25 72 46 8f c4 4c b1 bf 71 91 e2 f6 ab d8 b2 bf
       -0.06757763383797817 -0.07361864831415744
000740 e7 40 8c 52 7b 78 d7 3f 8c 0f 65 89 cc f1 e4 bf
       0.36672862111391996 -0.6545164760104725
000750 0c f0 b8 0a 85 7e b0 bf a0 96 a3 6c d3 2e e1 bf
       -0.0644305373361364 -0.5369660493713191
000760 c1 53 4b 90 69 75 b8 bf 79 35 14 98 eb 56 c8 bf
       -0.09554157040413626 -0.19015259671906984
000770 7c 3e 93 fa 59 e0 b5 3f b1 79 50 b0 1b 28 aa 3f
       0.08545458190496363 0.051087250969647065
000780 f4 3a 7d 5f 84 17 c0 bf 9c 4e 6a a3 98 90 d9 3f
       -0.12571768438871056 0.39945045431634596
000790 22 22 be d8 27 36 cc bf ad ed 03 9b 14 68 b1 3f
       -0.22040269930973105 0.06799439224771815
0007a0 7f fd 7f 1b 18 52 a3 bf 95 dd fc 50 4a 3c e1 bf
       -0.03773570380871671 -0.538609655551158
0007b0 de d2 d4 b3 74 39 37 3f 9b 29 3c 52 8e ec e5 bf
       0.0003543767851000144 -0.685126457801107
0007c0 fd 48 b0 39 e0 72 d5 3f 8a 8b eb 0e 39 23 c6 3f
       0.335136467300927 0.1729499171115914
0007d0 b4 8c 11 20 a8 64 84 3f 3f 3b c3 02 b0 70 e1 3f
       0.009957612494139269 0.5450058034856297
0007e0 86 15 25 23 03 ad b5 3f 9f 3e 23 79 a6 d1 d5 bf
       0.08467120750454712 -0.34092103795863155
0007f0 07 e9 ea 91 38 b7 e8 bf 34 19 88 1e b2 6e e2 3f
       -0.7723658418611031 0.5760126682587612
