w2v_model.npz (npz, 131106 bytes, 2 tensors)

arr_0 f4 [1633, 10]
000000 76 6a 3a 3c bb b6 b8 3b d5 cf a8 bd aa 5b 6d bb
       0.011377921 0.0056370175 -0.08242766 -0.0036217966
000010 45 ac ac 3c 63 41 19 bd 15 6e fd 3c d8 04 32 3c
       0.021078238 -0.037415873 0.03093628 0.010865413
000020 ce 77 b8 3c d1 f8 4e bd 1a 37 bb 3b b3 58 f6 3c
       0.022518065 -0.05053026 0.0057133557 0.030071592
000030 5b 2c 06 bd 3a 7c c1 3c 6c dd c1 3b a0 2a bd 3b
       -0.032757144 0.023618806 0.005916288 0.0057729036
000040 86 d3 af bc e0 70 cf 3b dd 5e 26 3d 40 bd 14 bd
       -0.021463167 0.0063305944 0.040617812 -0.036313295
000050 6c c0 4b bd cc c8 3b bd 7a 27 fc 3a 8f 2c 7b 3d
       -0.049744055 -0.04584579 0.0019237839 0.06132179
000060 93 0f f0 3c d7 36 27 3d 18 74 0d 3b 71 b8 01 3d
       0.029304301 0.040823784 0.002158409 0.031670038
000070 51 7e 95 bb f3 9f 35 3c 2a ba 00 bc 70 f0 89 bc
       -0.004562177 0.011085498 -0.007856885 -0.016838282
000080 11 02 30 bc 83 ca 8d bc c6 af f2 3c de 90 d5 bb
       -0.01074268 -0.01730848 0.029624831 -0.0065175137
000090 a7 21 86 3c cf a6 61 bc 33 9f 33 3d 1d 5e ee bc
       0.016373469 -0.01377268 0.043852996 -0.029097611
0000a0 e2 88 87 3c 7a 0f 37 bc 4d 91 e3 bc 04 e5 6a bc
       0.016544763 -0.0111731235 -0.027779246 -0.014336828
0000b0 d7 24 a0 bc c1 5d ef bb 6a e4 db bb 83 d7 a5 3b
       -0.019548817 -0.0073048775 -0.0067105787 0.0050610914
0000c0 42 7d b1 3c a0 96 ea bb 2b 19 e8 bc 37 17 a3 3a
       0.021666173 -0.007159069 -0.028332314 0.0012442832
0000d0 9a 46 48 bd 14 19 20 3c 4a 57 bf 3c 49 a1 72 bc
       -0.048895456 0.009771604 0.023357052 -0.014808961
0000e0 6f 2b 9e 3d 14 34 03 3d e7 76 05 3b 8c b2 0c bd
       0.07723128 0.032032087 0.002036506 -0.034349963
0000f0 dd 72 26 bc 37 ae 68 bc b6 a9 73 3c d2 c4 99 bc
       -0.0101592215 -0.014201692 0.014872005 -0.018770609
000100 0e 15 db bb fb 31 9c bc 52 4a 1d 3d 2a 52 17 bd
       -0.0066858595 -0.019066801 0.038400955 -0.036943592
000110 99 97 2a ba a8 0f 8b bc c9 8f 7e 3b ff 41 0b 3c
       -0.0006507575 -0.016975239 0.0038843027 0.008499621
000120 60 6e c7 bc 5b 8a fd 3c 9b c9 13 3c 74 27 7f 3d
       -0.024344623 0.030949762 0.009020234 0.062293485
000130 25 b1 e2 bc f7 33 cf 3c 3f 81 f7 bc 5c f2 13 bd
       -0.02767236 0.025293333 -0.030212997 -0.036119804
000140 cb b3 45 3d 67 71 2f 3d 86 ce 47 bd 67 58 35 bc
       0.048267167 0.04283276 -0.04878094 -0.01106844
000150 0a e4 0e bb d1 3e 5b bd 2d e6 75 3a a8 8a c8 3b
       -0.0021803402 -0.053526703 0.0009380307 0.0061200447
000160 0f 47 1f 3c a5 27 52 bd 7d 3b af 3c c2 d4 9e 3b
       0.0097215315 -0.05130734 0.02139067 0.00484714
000170 78 55 33 bc ef 67 be bc 9f 20 a0 3c 8a cd a1 3c
       -0.01094567 -0.023242919 0.019546805 0.019751329
000180 c1 8e cb bb c7 b0 8e 3b bf 4c b6 3c bc 19 64 bd
       -0.006212086 0.0043545696 0.022253392 -0.055688605
000190 fa 7a 96 ba 6e b6 3d bd 68 9b 26 bd 79 b6 42 3c
       -0.0011480742 -0.046316557 -0.04067555 0.011884325
0001a0 2c 6a 1f 3b 81 54 0d bc 2c fe 11 bb 2f 5c c2 3c
       0.0024324758 -0.008626104 -0.0022276742 0.023725597
0001b0 34 52 a6 3c 57 88 13 bd 73 86 ba 3a b2 31 88 bc
       0.02030287 -0.036018696 0.0014230743 -0.01662526
0001c0 94 19 58 3d 42 25 99 bc 76 d1 c1 bb d9 38 77 bc
       0.05275877 -0.018694524 -0.0059148623 -0.015089237
0001d0 b5 32 0f bb 9b 6e 0d 3c 9e b2 2c 3c de c3 4c bd
       -0.0021850292 0.008632327 0.0105406325 -0.04999148
0001e0 af a7 67 bc c7 6e 05 bd 03 d7 f9 3c b7 1f 79 3d
       -0.0141391 -0.03257635 0.030498033 0.06082126
0001f0 f5 c6 0b 3d f1 f2 0b 3c 1f a7 ce 3c d7 d9 86 3b
       0.034125287 0.008541808 0.025226174 0.004115324
000200 c0 69 27 3d 64 fb 86 3c 61 22 81 bc 5f 41 0b bd
       0.040872335 0.016477294 -0.015763463 -0.03399789
000210 bc 76 f6 bc 74 d7 b1 3b fe 4f f0 bc de 1d 08 bc
       -0.030085914 0.0054272953 -0.029335018 -0.008307902
000220 61 f3 18 3d 97 7e 4e 3c 41 75 51 3d b4 86 a6 3c
       0.03734148 0.012603424 0.051137213 0.020327903
000230 ff 89 45 bc ff e3 0f bd bb b8 c8 bb bd ea 40 bc
       -0.012056827 -0.035129543 -0.006125537 -0.011774716
000240 90 2f 18 3c ba da 0e 3d 37 4d b8 bc 83 7e e1 bb
       0.0092886835 0.034876563 -0.022497756 -0.0068815365
000250 38 79 35 3c 80 8d bf 3c ca 2a 92 3b 08 64 f2 3b
       0.011076264 0.023382902 0.0044606673 0.0073971786
000260 21 23 cb 3b 36 17 47 3c 4d 99 74 bc e0 76 47 bc
       0.006199256 0.01215153 -0.014929128 -0.012174338
000270 77 6a bc 3b ed 33 20 3c 63 ad 28 3d 75 a0 ed bd
       0.0057499963 0.009778005 0.04118098 -0.116028704
000280 6c 69 eb 3c c5 f4 ca ba 9f dd 34 3b 66 41 71 3c
       0.028736793 -0.0015484324 0.0027597917 0.014725065
000290 d3 29 73 bd eb eb 12 bd e6 33 2d 39 26 3f b7 bc
       -0.05936606 -0.03586952 0.000165179 -0.022368979
0002a0 52 b8 00 3c c8 c3 bb bc 35 8b 2d bd 99 9d 59 3c
       0.007856445 -0.022920504 -0.042369086 0.013282203
0002b0 3f 30 d8 3c 2d bf 6d 3c 60 1e 84 bc 6a a6 db bb
       0.026390193 0.014510912 -0.016127765 -0.0067031877
0002c0 c8 22 6e 3c cc f8 72 3c f9 a0 e3 3c 79 2b 0a bc
       0.01453466 0.014829826 0.027786719 -0.008433216
0002d0 07 fe 56 bd fd e0 d4 bc c8 7e 0d bc f4 6e 88 3c
       -0.052488353 -0.025986189 -0.008636184 0.01665447
0002e0 f7 04 75 3d ef 79 76 bc d7 29 ec 3c 7e 61 56 3a
       0.059819188 -0.01504372 0.028828545 0.00081779796
0002f0 af dc 80 3b 06 77 53 bc 8e e4 12 3c 3c 25 00 bc
       0.0039325575 -0.012906795 0.0089656245 -0.007821377
000300 66 06 07 bd d3 7d 57 bb ea eb 30 bc ae 0d fe 3c
       -0.032965086 -0.0032881394 -0.010798434 0.031012382
000310 8f 5f da 3c fb 54 d5 bc ec 34 01 3d d3 36 b2 bc
       0.026656894 -0.026041498 0.03154461 -0.021754658
000320 8e 33 1c 3b 70 db f0 3c 72 3d 07 bd 3a aa be 3b
       0.002383444 0.029401511 -0.033017583 0.0058186324
000330 af 67 fe bc 30 a6 54 bd 8a bf ee 3c 3d a3 47 ba
       -0.0310553 -0.0519163 0.029144067 -0.0007615572
000340 99 b4 7c bc 06 55 4b bd 49 62 48 bc 98 06 f7 3c
       -0.015423917 -0.04964163 -0.012230464 0.030154511
000350 be 55 9d 3b 0a 40 07 bc 1b e6 82 bc 6f 57 01 3b
       0.004801481 -0.008255014 -0.015978863 0.0019735952
000360 31 a4 1d bd 1c 20 21 3d b9 75 54 3c 38 5c bf 3c
       -0.038486663 0.039337263 0.01296752 0.023359403
000370 83 c5 63 bc 49 c3 ac 3c f0 06 8b 3c 18 eb 1a bd
       -0.013902071 0.021089213 0.016971081 -0.03782186
000380 a4 d7 70 3b 1c bd fe 3b 63 62 68 bc 33 95 11 bc
       0.0036749626 0.0077740084 -0.0141836135 -0.0088856695
000390 de 4e 30 3c ab 39 75 ba 32 0e cb bc 69 11 6f 3c
       0.010760991 -0.00093546015 -0.024787042 0.014591553
0003a0 6c 2b b8 3b 33 70 c9 3b ec d4 1a 3b 22 7f 35 3c
       0.0056204107 0.0061474084 0.0023625446 0.011077674
0003b0 e4 34 e7 bb 8b 5d ae bc ab ec 95 bc 71 70 df 3c
       -0.0070558656 -0.02128484 -0.018301329 0.027275296
0003c0 8b e4 4b bd 2f 7d 5a 3c f5 be 11 bd 7e 93 22 bd
       -0.049778502 0.01333551 -0.0355825 -0.03969144
0003d0 06 6e cb bc 49 31 d0 bb 20 a3 93 3c 19 a0 2b bd
       -0.024832737 -0.0063535315 0.01802212 -0.041900728
0003e0 d0 2a 29 3d f2 30 eb 3c e8 73 17 bc 10 ca dc bb
       0.041300595 0.028709862 -0.009243943 -0.006737955
0003f0 c0 f3 f3 bc 45 b3 49 3c c0 ba bd 3a 09 26 06 3d
       -0.029779315 0.012310808 0.0014475212 0.032751117

arr_1 f4 [10, 1633]
000000 b1 08 34 bc 91 e9 d2 3b 75 70 0c bc 69 86 c9 ba
       -0.0109884 0.0064365347 -0.008571734 -0.001537514
000010 74 b9 cd bc ae 45 26 bd 48 97 ba 3b 7c 58 45 3c
       -0.025112845 -0.040593795 0.0056943037 0.012045022
000020 f6 ef 3c 3c 09 7e 01 bd cf c1 39 bc 74 c3 82 bb
       0.0115318205 -0.031614337 -0.0113377115 -0.003990585
000030 bc 2f 43 bc e7 10 6e bb c9 24 19 bc 0a 41 d9 bb
       -0.011913236 -0.0036325993 -0.009347149 -0.0066300677
000040 a5 25 94 bc c7 bd 18 3d b7 f6 a5 bc a2 51 29 bb
       -0.018084357 0.03729036 -0.020259244 -0.002583601
000050 37 aa 8f bc 7c 28 3e 3c 00 9c d6 b9 48 ad dc 3c
       -0.01753722 0.011606332 -0.0004093349 0.026938096
000060 2c 76 28 bd 96 2a bf bc c4 6d 90 3c 9b 45 a5 bc
       -0.041128322 -0.023335736 0.017630465 -0.020174792
000070 87 51 b1 3b 73 18 59 bc c0 56 23 3c 03 f6 88 3c
       0.00541133 -0.013250458 0.009969413 0.01671887
000080 b8 02 84 bc fc 57 82 bc 03 c7 11 bc 48 1a fd bc
       -0.016114578 -0.015911095 -0.008897546 -0.030896321
000090 1a 5c 38 bc 03 ce ca bc bd 36 74 3c ed e4 85 3b
       -0.0112524275 -0.024756437 0.014905629 0.004086128
0000a0 52 92 f4 bc e2 55 ca bc a5 e9 21 bc c7 b2 97 3b
       -0.029854927 -0.024699155 -0.009882365 0.004629466
0000b0 3f ea cb bc 22 14 a6 bc 23 35 b5 ba c2 d1 35 bc
       -0.02489197 -0.020273272 -0.001382504 -0.011097373
0000c0 3c c5 a6 bb 6e a2 53 bc 23 46 56 bc 80 49 45 3c
       -0.00508943 -0.012917144 -0.013078245 0.01204145
0000d0 21 a2 b6 3a 3c 28 79 3c f5 d4 c8 bb b2 67 bb 3c
       0.0013933816 0.0152073465 -0.006128902 0.022876594
0000e0 b1 32 9d bc a5 79 11 bd 38 7a b8 3c fd 6a 9f bc
       -0.01918921 -0.0355164 0.022519216 -0.019460196
0000f0 03 86 37 3c 10 5c 23 3c d3 f3 05 bd ea 0a 1d 3b
       0.0112013845 0.00997068 -0.032703232 0.0023962804
000100 44 c4 83 bb 76 be b9 bc 4a 7d 74 3c a5 57 92 bc
       -0.0040211994 -0.022673827 0.014922449 -0.017864058
000110 36 e7 55 bc ab 03 da b9 fd 58 2f bb 60 8a 1a bd
       -0.013055613 -0.00041582933 -0.0026755922 -0.03772962
000120 5b df 57 3a ad ee 1b 3c ed 03 97 3c 6f 7b 50 3b
       0.00082348817 0.009517354 0.01843449 0.0031811853
000130 65 3e 99 3c 97 89 cc 3b f9 9b 3b bc f7 30 98 bc
       0.01870651 0.006241988 -0.011450761 -0.018578036
000140 a9 b0 fb bb cc 9e f6 bc fa 4e ac 3c 84 04 01 3c
       -0.0076809716 -0.030105017 0.021033753 0.007874612
000150 a5 da a6 3c c0 3e 52 3d 56 6a b9 3c ba 65 8a 3a
       0.02036793 0.051329374 0.022633713 0.0010558881
000160 fa df 9a 3c 3d 4b 05 bc 8d 37 9e bb a5 40 d6 bb
       0.018905628 -0.008135614 -0.0048283995 -0.006538468
000170 11 08 73 3b 29 7e 16 b7 09 cf 97 3b 3a e8 1f 3c
       0.0037083665 -8.970071e-06 0.004632835 0.009759957
000180 05 53 d6 bb d8 6a ab 3b 34 35 f1 b9 0e 20 47 3c
       -0.0065406584 0.0052312426 -0.00046006741 0.0121536385
000190 13 73 86 3c 96 cd d8 38 ea fa 51 3b a5 d7 70 3c
       0.016412294 0.00010337976 0.0032040426 0.014699851
0001a0 8d 27 72 ba 3f ad a4 3c e0 90 a7 bc db 9e 77 3c
       -0.0009237461 0.020102141 -0.020454824 0.015113558
0001b0 4e 12 f8 bb c6 eb cf 3b 31 03 3f 3c b5 d0 34 3c
       -0.0075705415 0.006345245 0.011658476 0.011036088
0001c0 c8 a8 85 bb 15 06 8b 3a fb d6 7a 3c bb 81 4a 3c
       -0.004078958 0.0010606671 0.015310044 0.012360032
0001d0 06 57 2c 3c dd 21 12 bc 09 f8 7e 3c 32 32 a3 3c
       0.010518795 -0.008919206 0.015562066 0.019921396
0001e0 2e 3e 9e 3c b0 c0 75 bb a5 69 1f 3a cb 73 9c 3c
       0.019316759 -0.0037498884 0.0006081111 0.019098183
0001f0 c7 f5 75 ba 0e 63 a3 bc a5 48 db 3c 09 e9 25 3d
       -0.0009382632 -0.019944694 0.026768038 0.040505443
000200 49 0b eb bb c5 7b a4 bc 57 f1 56 3c e4 91 c2 3c
       -0.007172976 -0.02007855 0.013119063 0.023751207
000210 06 bc bb 3c 61 c5 83 3c e8 25 a1 bc 08 f2 21 3c
       0.022916805 0.016085329 -0.019671395 0.009884365
000220 b3 25 2e bc 76 95 02 3c cd 23 fa 3b b8 a5 1e 3c
       -0.010629105 0.007970205 0.0076336623 0.009683065
000230 a4 bf cf 3b e7 13 97 3c e5 7e eb 3a f6 3d 97 3b
       0.006339984 0.018442107 0.0017966895 0.0046155406
000240 cb 67 47 bb ab ab 58 3b ab c6 e2 3c 8d e0 a0 3c
       -0.0030426856 0.0033061306 0.027682623 0.019638324
000250 89 9d cc 3b bb 0b c3 bb 8f f8 81 bc ad 42 1a 3c
       0.0062443656 -0.005952326 -0.015865592 0.009415311
000260 c7 a3 e5 3b 47 d3 cf bb a7 eb 61 bb 31 b9 2a bd
       0.007008049 -0.006342325 -0.0034472735 -0.04168052
000270 93 fa cd 3c d5 42 80 3c f0 f4 2c 3b 66 2e 0f 3c
       0.025143897 0.015656868 0.0026391111 0.00873909
000280 6f 8d 22 bb 9e 54 61 3c e8 64 d7 3a 99 ca 63 3c
       -0.002480354 0.0137530845 0.0016433271 0.0139032835
000290 45 d8 04 bc 20 42 7e bc c6 58 b8 3b 5a f5 dd bc
       -0.008108203 -0.015518695 0.005625817 -0.027094532
0002a0 07 7a 0d bd 5b a1 4e 3c 1a cd 12 bc 37 a5 91 bc
       -0.034540202 0.012611712 -0.008960033 -0.017778976
0002b0 ed 05 2c 3b d5 48 0f bb f8 75 9a bc df 9f 54 bc
       0.002624865 -0.002186348 -0.01885508 -0.012977569
0002c0 78 21 bc 3b 0e 00 89 3a b5 b2 97 3c d5 61 46 bc
       0.0057412945 0.0010452287 0.018517831 -0.012108286
0002d0 a2 16 78 bc 1d 66 38 39 eb c4 a3 3c 0e 05 d5 3c
       -0.015142115 0.00017585648 0.019991359 0.026003387
0002e0 c6 70 d5 ba 53 e0 14 bd cc fb 7f 3b 37 36 28 3b
       -0.001628422 -0.036346745 0.0039059995 0.002566708
0002f0 3c be 16 3c bb 76 a5 ba 40 a4 b2 3c 7a 68 d5 3c
       0.009200629 -0.0012623885 0.021806836 0.026050795
000300 a7 70 9e 3c 7e 29 1f 3c d1 aa 4e bd b4 71 08 3c
       0.019340826 0.009714482 -0.050455872 0.00832789
000310 ea 0e ba 3c e3 10 34 3d 25 ff 4c bc d9 dc ba 3c
       0.02271219 0.043961417 -0.012512003 0.022810386
000320 51 49 95 3c 32 99 30 bb 80 25 05 bc 2e 79 d8 3c
       0.018223437 -0.002694678 -0.0081266165 0.02642497
000330 c0 0d d1 3b e6 2b dd 3b 12 11 61 bc 61 49 f1 3b
       0.006379813 0.006749618 -0.01373698 0.007363484
000340 2c 2b c1 ba cb 1c 0d 3d 44 7f 3d bb 10 e1 dc 3c
       -0.0014737598 0.034451287 -0.0028914968 0.026962787
000350 a3 ec 12 3d 73 16 96 bc 09 34 4d 3c bf 67 a3 bb
       0.035870206 -0.018321251 0.012524613 -0.0049867327
000360 8c 51 0f bc 85 b4 98 3c 52 0f f5 ba e6 1c 58 3d
       -0.00874747 0.018640766 -0.0018696582 0.052761935
000370 f5 91 9f 3c fa 2d 54 3a 19 8e f3 3c 82 8f 8e bc
       0.019478777 0.0008094009 0.029730843 -0.017402414
000380 88 e2 cc 3b 06 92 ac bc c7 55 19 3d 25 46 12 bc
       0.0062525906 -0.021065723 0.03743532 -0.008927857
000390 c5 73 8c bc ba 94 09 bd 39 78 e5 3c 63 6d 33 3c
       -0.017145047 -0.033589102 0.028011428 0.010951373
0003a0 78 26 84 3c 87 45 81 bb 64 64 b2 bb 06 ef 39 bc
       0.016131625 -0.003945056 -0.0054440964 -0.011348492
0003b0 c4 d6 ca bc 7e 0b e3 bc 52 35 35 bc ab 9a aa bb
       -0.024760611 -0.02771544 -0.011060076 -0.005206426
0003c0 55 8a 95 bc 54 a2 25 bd 26 96 33 bc d3 a4 97 3c
       -0.018254438 -0.04043801 -0.010961091 0.018511211
0003d0 c3 38 57 3b 26 84 16 bd 43 b9 20 3c a4 fb 36 bb
       0.003284023 -0.03674712 0.009809795 -0.0027920986
0003e0 df 5a f4 bc 5d 04 79 bc f6 b8 94 3a 0b b4 5e bc
       -0.029828487 -0.015198794 0.0011346627 -0.01359273
0003f0 92 b2 a8 3c c0 1c d2 bb 85 76 14 bb 4c 78 9c bc
       0.020592961 -0.0064121187 -0.002265365 -0.01910033
